final_model_checkpoint.pth (torch, 48790 bytes, 8 tensors)

attention.weight f4 [1, 128]
0	0xbc29e1d9	-0.010368788
1	0xbc919d92	-0.01777533
2	0xbd2a2cbe	-0.041546576
3	0xbd475165	-0.04866161
4	0xbd825128	-0.063631356
5	0x305824a7	7.863243e-10
6	0xbd0ba593	-0.03409345
7	0x3c2b39ed	0.010450822
8	0x3b865bb1	0.004100286
9	0xbd37fda0	-0.04491961
10	0x3adc5ce9	0.0016812357
11	0x3d0b9c29	0.034084473
12	0x3d315419	0.043293092
13	0x3c8d2036	0.017227273
14	0x3d38beb0	0.04510373
15	0xbcc56c98	-0.024099633
16	0xbc46e726	-0.012140071
17	0x3c92bcf0	0.017912358
18	0x3c1e5539	0.009663873
19	0xbc8341b4	-0.01602254
20	0xbc90f84c	-0.017696522
21	0x2bf6a22c	1.7524363e-12
22	0x3bb9b7a9	0.005667646
23	0xba17abb0	-0.00057857763
24	0xbd4f73d7	-0.050647583
25	0xbbb68232	-0.0055697197
26	0xbd098efa	-0.03358362
27	0xbd130a6e	-0.03589862
28	0xbd04037e	-0.032229893
29	0x3d6700d1	0.056397263
30	0x3c3085a2	0.010774048
31	0xbd2f14d1	-0.04274446
32	0x3d69f3f9	0.057117436
33	0x3c8b5b99	0.01701145
34	0x3d027682	0.0318513
35	0xbd20e570	-0.03928131
36	0xbd656912	-0.056008406
37	0x3d02735a	0.03184829
38	0xbd84688b	-0.064652525
39	0x3bfa4c27	0.0076384726
40	0xbd2437b6	-0.040092193
41	0x3c9acc1a	0.018896151
42	0xbcbdcbe4	-0.023168512
43	0xbcac72a0	-0.021050751
44	0xbc407931	-0.011747644
45	0xbc6e066a	-0.014527896
46	0xbd63bee0	-0.055601954
47	0xbbaacc56	-0.005212347
48	0xb31f6a82	-3.711694e-08
49	0xbbb0cbb6	-0.005395378
50	0x3d6ef538	0.058339328
51	0xbd50746d	-0.050892282
52	0x3d6fb67e	0.058523647
53	0x3d4fe7c6	0.050758146
54	0x3c8d5480	0.017252207
55	0x39fade53	0.0004784936
56	0x3d21e082	0.039520748
57	0xbd7597c8	-0.059959203
58	0xb912cc30	-0.00013999711
59	0x347967df	2.322772e-07
60	0xbd192d06	-0.037396453
61	0xbc0e6676	-0.008691421
62	0x3c75c337	0.015000156
63	0xbc2ac8b1	-0.010423825
64	0x3d6303aa	0.055423416
65	0xbcd45bff	-0.025922773
66	0x3b63805c	0.003471396
67	0xbd736c4d	-0.059429456
68	0xbcf2b5ca	-0.0296277
69	0xbd5d18e1	-0.053978804
70	0x3a122a87	0.0005575795
71	0x3cc752db	0.0243315
72	0xbc12e976	-0.008966794
73	0x3ca79d98	0.020460889
74	0xbd5f8183	-0.05456687
75	0xbd7631cc	-0.060106084
76	0xaf8f5c0d	-2.6076954e-10
77	0x3b5d105c	0.0033731675
78	0xbd8373a8	-0.06418544
79	0x3d81cbb7	0.06337684
80	0x3d20f4ed	0.03929608
81	0x3c74b204	0.01493502
82	0xb3f42540	-1.1368911e-07
83	0xbcddc933	-0.027073478
84	0x3c0cec0b	0.008601199
85	0xbd68bf49	-0.05682305
86	0x3c18dce9	0.009330013
87	0xbd4a594c	-0.049401566
88	0x24b10146	7.676367e-17
89	0xbce7139c	-0.028207593
90	0xbcfb1705	-0.030650625
91	0x3c97d22d	0.018532837
92	0xbcee3146	-0.02907623
93	0xbd17c78e	-0.037055545
94	0xbcd01e69	-0.025405126
95	0xbabc9039	-0.0014386243
96	0xbcab5085	-0.020912418
97	0x3a2f240b	0.0006681091
98	0x3d53750f	0.051625308
99	0x3cb86b21	0.02251202
100	0xbc6fb337	-0.0146301305
101	0xbd12d3a2	-0.03584636
102	0x3d5758d5	0.05257495
103	0xbcb693ff	-0.022287367
104	0xbd1211f1	-0.03566164
105	0xbd4ec002	-0.05047608
106	0xb3e80dc1	-1.0805844e-07
107	0xbd09624f	-0.03354102
108	0xbd38fa77	-0.045160737
109	0x3cd9674e	0.026538517
110	0xbcc18afb	-0.023625841
111	0xbc530aab	-0.012880961
112	0x3cf38ce0	0.02973026
113	0x3bd3f8ed	0.0064688832
114	0x3d10ad77	0.03532168
115	0xbd262c8e	-0.040569834
116	0x2cbee7a9	5.4258442e-12
117	0xbccc8f1a	-0.02497058
118	0xba4028d3	-0.0007330302
119	0x3d70021d	0.058595765
120	0x3d7ec6ca	0.0622013
121	0xbd11e62f	-0.03561991
122	0x248ebab9	6.1899004e-17
123	0xbb264317	-0.0025369579
124	0xbd72a9a1	-0.059243802
125	0x3c466408	0.01210881
126	0x3d1011cc	0.035173222
127	0xbd75002b	-0.059814613

fc1.weight f4 [128, 80]
0	0xbdba6b9f	-0.09102558
1	0xbd0ea21c	-0.03482257
2	0xbda5253a	-0.08063741
3	0x3d0490df	0.032364722
4	0x3cfc5858	0.030803844
5	0xbc930681	-0.017947437
6	0x3d41dd72	0.047330327
7	0x3bb470c8	0.0055066086
8	0x3dd09802	0.10185243
9	0x3c73c0f4	0.014877547
10	0x3da1e9da	0.07905932
11	0x3d9efb25	0.07762746
12	0x3afebf9f	0.001943577
13	0x3d6d5c02	0.057949074
14	0x3ccf89a5	0.025334189
15	0xbcc22ff9	-0.023704516
16	0x3d6118a5	0.054955143
17	0x3d823ab9	0.06358857
18	0xbd73ec3a	-0.059551455
19	0xbd6889d8	-0.056772083
20	0xbd9d60fb	-0.07684513
21	0xbd9c4de3	-0.07632043
22	0xbd7f909f	-0.06239378
23	0xbd9f4aac	-0.077779144
24	0x3d858abb	0.06520601
25	0xbdaadd0a	-0.08342941
26	0xbdb70151	-0.08935798
27	0xbd9972b4	-0.07492581
28	0xbcbefe3d	-0.02331459
29	0x3dd8fdbf	0.10595273
30	0x3ae55694	0.0017497116
31	0xbdb9b73f	-0.090681545
32	0xbc973446	-0.018457543
33	0x3cce8038	0.025207624
34	0x3da32cf2	0.07967557
35	0x3b9c5253	0.004770556
36	0x3deac87c	0.114640206
37	0x3caeb470	0.021326274
38	0x3db34f59	0.08755369
39	0xbd5c5b7e	-0.05379819
40	0xbcb63754	-0.02224318
41	0x3c26dc17	0.010184309
42	0x3dddf183	0.1083708
43	0xbd4488b8	-0.047981948
44	0x3d1d0cf8	0.038342446
45	0xbdc14748	-0.09437424
46	0xbd276a12	-0.04087264
47	0xbd104c87	-0.035229232
48	0xbcfd0b3d	-0.030889148
49	0x3b734ba6	0.0037123947
50	0x3d0de6e1	0.03464401
51	0x3ddc2de0	0.107509375
52	0x3d787bc6	0.060664915
53	0xbd228425	-0.039676804
54	0x3d36b652	0.044607468
55	0xbd994cbf	-0.07485341
56	0xbccb426d	-0.024811948
57	0x3d9c9dc3	0.07647278
58	0x3db46832	0.08808936
59	0x3bc5eb60	0.006040022
60	0x3da0dd34	0.07854691
61	0xbd5008e5	-0.050789732
62	0x3d9e514b	0.07730349
63	0xbc1503c3	-0.009095135
64	0xbd84af70	-0.064787745
65	0xbd6468f6	-0.05576416
66	0xbc4ef949	-0.012632676
67	0x3dc5ae2e	0.09652363
68	0x3d25e614	0.040502623
69	0xbd52e757	-0.051490154
70	0xbd0de47d	-0.03464173
71	0xbd687eb1	-0.056761447
72	0x3dcc0715	0.09962288
73	0xbdc0faf1	-0.09422863
74	0x3c886a5f	0.016652284
75	0xbcd146d9	-0.025546478
76	0x3d8c2bb1	0.06844271
77	0x3b16f7e0	0.0023035929
78	0xbd24e6e4	-0.040259257
79	0x3c8cd3e9	0.01719089
80	0x3db17a87	0.08665948
81	0xbce644e3	-0.02810902
82	0x3db7f96b	0.089831196
83	0xbd80e6e5	-0.0629404
84	0x3dd89a99	0.10576362
85	0x3d135f77	0.035979714
86	0xbd666cc5	-0.056256074
87	0xbcf03b1d	-0.029325062
88	0x3db8c5d3	0.09022107
89	0xbc04ef22	-0.008113654
90	0x3de67d22	0.11254336
91	0xbdb2a882	-0.087235466
92	0x3d4eb1c4	0.0504625
93	0xbd97f597	-0.074198894
94	0xbd9a17e5	-0.07524089
95	0x3d0ead31	0.034833137
96	0x3d303bf1	0.043025915
97	0xbd0c9a50	-0.03432685
98	0x3da6850b	0.08130845
99	0xbd57be6b	-0.05267183
100	0xbd04c71f	-0.03241646
101	0xbd3d675c	-0.04624115
102	0xbd46492a	-0.04840962
103	0xbdb567a8	-0.088576615
104	0xbd86396f	-0.06553923
105	0xbd21b201	-0.0394764
106	0xbdd2ca29	-0.10292465
107	0xbdb4394d	-0.08799992
108	0x3d5b097b	0.05347584
109	0x3cc9d2bb	0.024636617
110	0x3d264cb3	0.04060049
111	0x3c6ff19e	0.014645008
112	0x3d79c099	0.06097469
113	0x3c568d47	0.013095207
114	0x3ced1040	0.028938413
115	0xbd326fbd	-0.043563593
116	0xbc02bcdb	-0.007979597
117	0x3d85f203	0.06540301
118	0xbdb4601d	-0.08807395
119	0x3d1c0fdb	0.03810106
120	0xbc9716bd	-0.01844346
121	0xbdbee4f4	-0.09321013
122	0xbda04fbc	-0.07827708
123	0x3d6e89c9	0.05823687
124	0xbcf05b99	-0.029340552
125	0x3dc6e4ac	0.097115844
126	0xbdbaf2b1	-0.09128321
127	0xbcd6671c	-0.026172213
128	0xbdcfc3a8	-0.1014474
129	0xbc780b79	-0.015139454
130	0xbd941792	-0.07231058
131	0x3c8cca48	0.017186299
132	0xbd5aa7fe	-0.053382866
133	0x3dc45eb6	0.09588377
134	0xbd5d9195	-0.054093916
135	0xbd8848d8	-0.06654519
136	0xbcb47eec	-0.022033177
137	0x3dc1c164	0.094607145
138	0x3dc101ad	0.09424148
139	0xbdcdd635	-0.100506224
140	0xbdb348c4	-0.08754113
141	0xbd002b32	-0.031291194
142	0xbceb7c17	-0.028745694
143	0xbd832f63	-0.06405523
144	0xbc9e6edc	-0.019339971
145	0x3d9afadf	0.07567381
146	0x3c554e5b	0.01301917
147	0x3d6c90e8	0.05775538
148	0x3cffb335	0.031213382
149	0xbd492ece	-0.049116902
150	0x3b2693fe	0.00254178
151	0x3d354fc8	0.04426554
152	0x3d62499b	0.055245977
153	0x3ddbbb67	0.107291035
154	0xbd3a43db	-0.04547487
155	0xbc9ed93c	-0.019390695
156	0x3ddf4f28	0.1090377
157	0x3d6c30d5	0.057663757
158	0xbdc74f40	-0.097319126
159	0xbdb4f95a	-0.088366225
160	0xbd0e671e	-0.03476631
161	0x3dab2627	0.08356886
162	0xbd4212ba	-0.04738114
163	0xbd876ec9	-0.066129275
164	0x3d335227	0.04377952
165	0xbd0aaa13	-0.0338536
166	0x3d87f996	0.066394016
167	0xbb79cffb	-0.003811835
168	0x3dade187	0.084902816
169	0xbc81caa5	-0.015843699
170	0xbd1f97d7	-0.038963165
171	0xbcafe9b0	-0.021473736
172	0x3d1aab0e	0.037760787
173	0xbda437e8	-0.08018476
174	0x3dc3de26	0.09563856
175	0x3d29405b	0.04132114
176	0xbd9111f8	-0.070835054
177	0xbd9dca89	-0.07704646
178	0xbdc4cbaa	-0.09609158
179	0x3d18367c	0.037161335
180	0x3aeddeea	0.0018148099
181	0x3cab0744	0.020877488
182	0x3dd19bb8	0.10234779
183	0x3d9ee1b8	0.07757896
184	0xbbd63299	-0.0065367934
185	0xbdc9cb05	-0.09853176
186	0x3b654f7a	0.0034989999
187	0xbc86b3de	-0.01644319
188	0x3d8aee04	0.06783679
189	0xbdb3f4dd	-0.08786938
190	0x3ca26749	0.01982464
191	0xbcc7edc3	-0.024405366
192	0xbd21f1a0	-0.039537072
193	0xbd56eb8e	-0.052470736
194	0x3d2dd0bf	0.042435404
195	0xb8bf6118	-9.125675e-05
196	0x3d176a3c	0.036966547
197	0xbdc5fd9d	-0.096675135
198	0xbcc26885	-0.02373148
199	0xbda3010c	-0.07959184
200	0x3dbc8060	0.09204173
201	0xbc9c7b5c	-0.019101791
202	0x3db5a339	0.08869023
203	0xbd9f164e	-0.07767926
204	0x3d0307ab	0.031989735
205	0xbcbbe315	-0.02293543
206	0xbdbe1ebb	-0.09283205
207	0x3d814be9	0.06313307
208	0xbdcb42b3	-0.09924831
209	0xbd75c2e3	-0.06000031
210	0x3cfad978	0.030621275
211	0xbd68f08e	-0.056870036
212	0xbdc78504	-0.097421676
213	0xbdb4d973	-0.08830538
214	0x3c855a9f	0.016278563
215	0x3dc2b8cf	0.09507906
216	0xbd7b4b05	-0.06135084
217	0x3db185e8	0.08668119
218	0xbdb03b0b	-0.086050116
219	0x3d8efce1	0.069818266
220	0x3db155cd	0.08658943
221	0x3cde214a	0.027115483
222	0x3d872fbc	0.066009015
223	0x3d8687b9	0.06568856
224	0xbc5fb9f4	-0.0136551745
225	0xbda9f95d	-0.082995154
226	0xbd419218	-0.047258466
227	0x3c8a0083	0.016845947
228	0x3da9ef33	0.08297577
229	0xbdb22352	-0.08698143
230	0x3c003c2e	0.007826848
231	0xbdb6f361	-0.089331396
232	0x3cd42aad	0.025899256
233	0x3c201876	0.009771457
234	0xba881d61	-0.0010384732
235	0x3ccb284f	0.024799494
236	0x3daaf7d5	0.083480515
237	0xbd357936	-0.04430505
238	0xbda03412	-0.078224316
239	0xbd9ad6b5	-0.07560483
240	0xbdd88a01	-0.10573197
241	0xbd28925b	-0.0411552
242	0x3dcdf418	0.10056323
243	0x3dcbc957	0.09950512
244	0xbda5aac4	-0.080892116
245	0xbc964d84	-0.01834751
246	0xbd8f95bb	-0.07010981
247	0x3c023a15	0.007948418
248	0x3c9ed484	0.019388445
249	0x3dab61ed	0.08368287
250	0x3db9e1fb	0.090763055
251	0xbdba74a0	-0.09104276
252	0x3d6f28bd	0.05838846
253	0x3c3e1a2d	0.0116029205
254	0xbbc37977	-0.0059654075
255	0x3cfad588	0.030619398

fc1.bias f4 [128]
0	0x3d9e510b	0.077303015
1	0x3c997c30	0.018735975
2	0xbd9e86a8	-0.077405274
3	0xbd8a238b	-0.067450605
4	0xbd9f91d3	-0.07791486
5	0x3bdbd038	0.006708171
6	0xbca7316e	-0.020409312
7	0xbc9cee78	-0.01915668
8	0xbb9accbd	-0.0047241137
9	0x3c2d95b7	0.010594777
10	0xbc9b45c3	-0.018954163
11	0x3d6d97c6	0.05800607
12	0xbd69c408	-0.057071716
13	0xbd2a9716	-0.041647993
14	0xbd600a90	-0.054697573
15	0xbd5672b9	-0.0523555
16	0x35f53b2f	1.8271147e-06
17	0xbda7836f	-0.08179366
18	0x36cca205	6.0985353e-06
19	0xbd930c93	-0.07180133
20	0xbcb50669	-0.022097783
21	0x3c6509b3	0.013979363
22	0x3d98cdf2	0.07461156
23	0xbbde05c3	-0.006775589
24	0xbd635fbc	-0.05551122
25	0xbd73cf54	-0.059523895
26	0xbd206144	-0.03915526
27	0xbcb7d093	-0.022438323
28	0xbd5628ec	-0.05228512
29	0x3bfeaca7	0.0077720466
30	0x3d8d3602	0.06895067
31	0xbd1fb104	-0.038987175
32	0x3b97c5b5	0.004631723
33	0x3daed48f	0.08536636
34	0xbd42bd7b	-0.047543984
35	0x3d92fbea	0.07176955
36	0x3c80b5f6	0.015711766
37	0xbd905cb4	-0.07048932
38	0x3d2948c3	0.041329157
39	0xb4dae9fc	-4.077591e-07
40	0x37670a27	1.3771037e-05
41	0xbca15389	-0.019693153
42	0x3d713994	0.0588928
43	0x36bbdfd6	5.599092e-06
44	0x3d8564c9	0.06513364
45	0x3be6f6df	0.0070484723
46	0xbd6238f0	-0.05523008
47	0x3d097e6d	0.033567835
48	0x3604f943	1.9814622e-06
49	0xbd6420e4	-0.05569543
50	0x37ab57ac	2.0425614e-05
51	0xbd5f8cbc	-0.054577574
52	0x3c1b001a	0.009460473
53	0x3d0ee209	0.034883533
54	0x3b253bdf	0.0025212688
55	0x3dad47f3	0.08460989
56	0xb987c9dc	-0.00025899603
57	0xbd185681	-0.03719187
58	0x3d555e8d	0.052092124
59	0x3da5e555	0.08100382
60	0xbd3d2bde	-0.046184413
61	0xb77c1c59	-1.5026971e-05
62	0xbd948271	-0.07251442
63	0x3c13a255	0.009010871
64	0x3b5a9505	0.0033352983
65	0xbb615839	-0.003438486
66	0xbd328315	-0.04358204
67	0x3db4bb0d	0.088247396
68	0x37022301	7.756754e-06
69	0xbd142ed2	-0.036177464
70	0x3cf35476	0.02970336
71	0xbd59ef75	-0.05320688
72	0xbc1056d2	-0.008809762
73	0xbd019f1e	-0.031645887
74	0xbd8a06bc	-0.06739566
75	0xb71e33ac	-9.429565e-06
76	0x3c82f908	0.015987888
77	0xbd18434c	-0.037173554
78	0xbd6b7e97	-0.057493772
79	0x3d8fbfee	0.070190296
80	0xbcb1632e	-0.021653738
81	0x3d4eb590	0.05046612
82	0xbbee6f15	-0.0072764256
83	0xbd95dfe0	-0.073180914
84	0x365eddf6	3.3209776e-06
85	0xbdad0d21	-0.0844977
86	0xba0e48ad	-0.00054276997
87	0x3be4290e	0.006962902
88	0xb799f2be	-1.8352057e-05
89	0xbd9919c7	-0.0747562
90	0x3c1ff64f	0.009763314
91	0x3d25efe9	0.040512
92	0x3b806da5	0.0039193206
93	0x3da93bbe	0.08263348
94	0xbdadb829	-0.084823914
95	0x3d6b3d1a	0.057431318
96	0xbd8fcad5	-0.07021109
97	0x3d4770bc	0.048691496
98	0xbc88d410	-0.016702682
99	0xbc534d59	-0.012896859
100	0x3c61ab84	0.013773803
101	0x3b8532ea	0.0040649073
102	0xb796d93a	-1.7982547e-05
103	0xbd1195bc	-0.03554319
104	0x3d688e75	0.056776483
105	0x3d16dca0	0.0368315
106	0xbcbce9c5	-0.023060689
107	0xbd8b6059	-0.06805486
108	0x3d7bc00a	0.06146244
109	0xbd40ed67	-0.047101405
110	0xbcfe23e8	-0.03102298
111	0x38e674d7	0.00010989018
112	0xbb458fdf	-0.0030145568
113	0xbc9fba83	-0.019498115
114	0xbbe8e918	-0.007107865
115	0x3cec8fe2	0.028877202
116	0x3d228d66	0.03968563
117	0xbc61f0fa	-0.013790363
118	0xbd189b0c	-0.03725724
119	0x3d5d7d3c	0.05407451
120	0xbd426e18	-0.047468275
121	0x3d81e31f	0.06342148
122	0xbd4dfc57	-0.05028948
123	0xba3c8981	-0.00071921205
124	0x3b86a8a1	0.0041094576
125	0xbd8f1f98	-0.06988448
126	0x3c22fcc4	0.009947959
127	0xba1e36ae	-0.00060353696

bn1.weight f4 [128]
0	0x3f7d24c6	0.98884237
1	0x3f7ca5b2	0.9869033
2	0x3f7c179f	0.9847354
3	0x3f8106b2	1.0080168
4	0x3f80c2a6	1.0059402
5	0x3f7d504e	0.9895066
6	0x3f812d94	1.0092034
7	0x3f7cc871	0.9874335
8	0x3f7ce688	0.9878926
9	0x3f8185f2	1.0119002
10	0x3f80550c	1.0025954
11	0x3f7d81a0	0.9902592
12	0x3f7ca757	0.9869284
13	0x3f8161c8	1.0107965
14	0x3f818d28	1.0121202
15	0x3f7d0d90	0.9884882
16	0x3f7ca6e6	0.98692167
17	0x3f7e26a6	0.9927772
18	0x3f7d93c2	0.99053586
19	0x3f80bd81	1.0057832
20	0x3f811e43	1.008736
21	0x3f81860a	1.011903
22	0x3f81364f	1.0094699
23	0x3f7c722c	0.9861171
24	0x3f811093	1.0083183
25	0x3f80c336	1.0059574
26	0x3f81a044	1.0127034
27	0x3f81075b	1.008037
28	0x3f809ad1	1.0047246
29	0x3f80cbff	1.0062255
30	0x3f7cba48	0.9872174
31	0x3f81527b	1.0103296
32	0x3f7c09d8	0.9845252
33	0x3f7c82d4	0.9863713
34	0x3f7cb9e6	0.9872116
35	0x3f808b88	1.0042582
36	0x3f814df2	1.0101912
37	0x3f80e5fc	1.0070186
38	0x3f7be625	0.9839805
39	0x3f7c985d	0.9866999
40	0x3f7ca838	0.9869418
41	0x3f7cd7cd	0.98766786
42	0x3f7d1ff8	0.98876905
43	0x3f7c473b	0.9854619
44	0x3f7d8fbd	0.9904745
45	0x3f80dfd1	1.0068303
46	0x3f812a52	1.009104
47	0x3f7d19e7	0.9886765
48	0x3f7c4e25	0.9855674
49	0x3f813650	1.00947
50	0x3f7c8c28	0.9865136
51	0x3f7d17a2	0.98864186
52	0x3f80ed2a	1.0072377
53	0x3f80f2ef	1.0074137
54	0x3f7c806e	0.9863347
55	0x3f7c8e78	0.9865489
56	0x3f7c7dd6	0.9862951
57	0x3f7ead9a	0.99483645
58	0x3f7cb96e	0.98720443
59	0x3f817701	1.0114442
60	0x3f7dc4e4	0.99128556
61	0x3f814b18	1.0101042
62	0x3f7d8bbb	0.99041337
63	0x3f7ee1ec	0.9956348
64	0x3f7c5c74	0.9857857
65	0x3f80432c	1.0020499
66	0x3f7c787e	0.98621356
67	0x3f7c8a9e	0.98649013
68	0x3f7cefc0	0.9880333
69	0x3f812a98	1.0091124
70	0x3f7cbb87	0.98723644
71	0x3f80d545	1.0065085
72	0x3f7c2b0a	0.9850317
73	0x3f811238	1.0083685
74	0x3f7cfbee	0.98821914
75	0x3f80d8a5	1.0066115
76	0x3f7ca553	0.98689765
77	0x3f817f23	1.0116924
78	0x3f812010	1.008791
79	0x3f7ca6e6	0.98692167
80	0x3f8163b4	1.0108552
81	0x3f7e987f	0.9945144
82	0x3f7cfa69	0.98819596
83	0x3f7c35fc	0.98519874
84	0x3f7d2ae7	0.9889359
85	0x3f7d9a1c	0.9906328
86	0x3f81026d	1.0078865
87	0x3f81343c	1.0094066
88	0x3f80f07e	1.0073392
89	0x3f7cd355	0.9875997
90	0x3f80e0c5	1.0068594
91	0x3f7ce15f	0.9878139
92	0x3f7da9e9	0.9908739
93	0x3f811020	1.0083046
94	0x3f8104e2	1.0079615
95	0x3f80cc66	1.0062377
96	0x3f80b0d6	1.0053966
97	0x3f81113c	1.0083385
98	0x3f7ca3ad	0.9868725
99	0x3f7d94a5	0.9905494
100	0x3f7d685f	0.9898738
101	0x3f811011	1.0083028
102	0x3f8120c0	1.008812
103	0x3f7eac29	0.99481446
104	0x3f7ca8c9	0.98695046
105	0x3f819e77	1.0126485
106	0x3f7dd52d	0.99153405
107	0x3f7c69a4	0.98598695
108	0x3f7dca4e	0.9913682
109	0x3f8199bc	1.0125041
110	0x3f7c74cf	0.98615736
111	0x3f7c74d4	0.98615766
112	0x3f7caee7	0.9870438
113	0x3f7c0b18	0.9845443
114	0x3f7c87f4	0.9864495
115	0x3f80a518	1.0050383
116	0x3f8114b5	1.0084444
117	0x3f806659	1.0031234
118	0x3f80f05f	1.0073355
119	0x3f7d0235	0.9883149
120	0x3f80f8af	1.0075892
121	0x3f7cc7ff	0.9874267
122	0x3f810b9a	1.0081666
123	0x3f7cdef0	0.98777676
124	0x3f815ff1	1.0107404
125	0x3f7d33de	0.9890727
126	0x3f8179ca	1.0115292
127	0x3f7c9905	0.9867099

bn1.bias f4 [128]
0	0xbc24a53e	-0.010049162
1	0xbc6d7d36	-0.014495185
2	0xbc625d9f	-0.013816266
3	0x3c1ffa29	0.009764233
4	0x3bbf42b5	0.0058368095
5	0xbc237b40	-0.009978116
6	0x3c4c0233	0.012451696
7	0xbc5c4b12	-0.0134456325
8	0xbc3daf46	-0.011577433
9	0x3c778bb2	0.01510899
10	0x3b5cfeb4	0.003372115
11	0xbc3f118b	-0.011661897
12	0xbc28f7eb	-0.0103130145
13	0x3c60da75	0.013723959
14	0x3c7d41f0	0.015457615
15	0xbc33356e	-0.010938032
16	0xbc3896a5	-0.011266385
17	0xbbe10caa	-0.0068679648
18	0xbc308146	-0.010773009
19	0x3bdc0580	0.006714523
20	0x3c2790fb	0.010227437
21	0x3c746ac7	0.014918036
22	0x3c130abc	0.008974727
23	0xbc51a572	-0.012795793
24	0x3c3649f2	0.011126028
25	0x3c1ed41c	0.0096941255
26	0x3c76a7be	0.015054641
27	0x3c1fcb1a	0.009753013
28	0x3bf0f0e0	0.0073529333
29	0x3c1f501d	0.00972369
30	0xbc60c3a9	-0.013718524
31	0x3c52cd08	0.012866266
32	0xbc47da5b	-0.012198056
33	0xbc4ac4d8	-0.012376033
34	0xbc3e3c76	-0.011611095
35	0x3be3c352	0.006950774
36	0x3c32a117	0.010902665
37	0x3c0d35cb	0.008618782
38	0xbc61f51f	-0.013791352
39	0xbc62567e	-0.013814567
40	0xbc74ff44	-0.014953438
41	0xbc3fd04c	-0.011707377
42	0xbc2e9c92	-0.010657446
43	0xbc418850	-0.011812285
44	0xbc18908b	-0.0093118055
45	0x3be9a390	0.007130094
46	0x3c4ec14b	0.012619327
47	0xbc192be7	-0.009348846
48	0xbc4fe4dd	-0.012688843
49	0x3c50d233	0.012745428
50	0xbc4c9be5	-0.01248834
51	0xbc520370	-0.012818202
52	0x3c2afd69	0.010436394
53	0x3c11d4ab	0.008900802
54	0xbc639d30	-0.013892457
55	0xbc59b7ae	-0.013288422
56	0xbc587457	-0.013211331
57	0xbb523ed2	-0.00320809
58	0xbc5b3be5	-0.013380979
59	0x3c4cd4be	0.012501894
60	0xbc2d9de6	-0.010596728
61	0x3c45ffb9	0.012084895
62	0xbc2e4c6f	-0.01063834
63	0xbbc0fb37	-0.005889322
64	0xbc502178	-0.012703292
65	0x3ad10b2a	0.0015948762
66	0xbc57b1af	-0.013164922
67	0xbc4cc306	-0.012497669
68	0xbc49c11e	-0.012314109
69	0x3c1b1f04	0.009467844
70	0xbc60c5b8	-0.013719015
71	0x3c22e22c	0.009941619
72	0xbc726e91	-0.014796869
73	0x3c3e0220	0.011597186
74	0xbc6060e4	-0.0136949755
75	0x3c3436ca	0.010999391
76	0xbc33cb19	-0.010973715
77	0x3c6c84db	0.014435972
78	0x3c08fce8	0.008361079
79	0xbc539e90	-0.012916222
80	0x3c474e81	0.012164713
81	0xbb6c6ff8	-0.003607748
82	0xbc50c11a	-0.0127413515
83	0xbc5bfbd7	-0.0134267425
84	0xbc31d2c6	-0.010853475
85	0xbc38244f	-0.011239125
86	0x3c4165c4	0.011804048
87	0x3c3dd6a7	0.011586822
88	0x3c2785d0	0.0102247745
89	0xbc65900c	-0.014011394
90	0x3bb6abfb	0.005574701
91	0xbc2e295c	-0.010629978
92	0xbc007808	-0.007841118
93	0x3c1c4ff7	0.0095405495
94	0x3c37e2a7	0.011223472
95	0x3c1f9afb	0.00974154
96	0x3bdbaa80	0.006703675
97	0x3c37ed47	0.011226005
98	0xbc6fdf40	-0.014640629
99	0xbc379229	-0.011204281
100	0xbc1dc8bb	-0.009630377
101	0x3c02700d	0.007961285
102	0x3c4f04b7	0.012635401
103	0xbbc88d2d	-0.006120345
104	0xbc505f34	-0.012718011
105	0x3c706f71	0.014675007
106	0xbc12d192	-0.008961098
107	0xbc51c2ca	-0.012802789
108	0xbc1ad042	-0.009449067
109	0x3c4c6ea9	0.012477555
110	0xbc633501	-0.013867618
111	0xbc462679	-0.0120941335
112	0xbc5a8252	-0.013336735
113	0xbc6405aa	-0.013917366
114	0xbc4c2bcc	-0.012461614
115	0x3c20b402	0.009808542
116	0x3c41a36b	0.011818747
117	0x3b871464	0.004122304
118	0x3c30be9b	0.010787631
119	0xbc5108f7	-0.012758485
120	0x3c289350	0.010289028
121	0xbc4c3613	-0.012464064
122	0x3c205b2a	0.00978736
123	0xbc41c38b	-0.011826406
124	0x3c1df1b5	0.009640147
125	0xbc4122c6	-0.011788076
126	0x3c4c707e	0.012477992
127	0xbc458641	-0.012055934

bn1.running_mean f4 [128]
0	0x3e32bc32	0.17454603
1	0xbdacef67	-0.084441
2	0x3ecdcffa	0.40197736
3	0xbebbd88b	-0.36688647
4	0xbe44d43a	-0.19221583
5	0x3e2dbac2	0.16965774
6	0x3d3a3153	0.045457195
7	0x3e3a8be0	0.1821742
8	0xbd86deb5	-0.06585447
9	0x3e4d91e0	0.20075178
10	0x3cf4bdb4	0.029875614
11	0x3eaeec44	0.3416463
12	0xbd291cc4	-0.0412872
13	0x3e64076d	0.22268458
14	0xbd07b5ce	-0.033132367
15	0xbe8a5de5	-0.2702476
16	0xbdc24fe9	-0.09487898
17	0xbe1e4420	-0.15455675
18	0x3ebcdf5c	0.3688916
19	0xbe38c9a3	-0.18045668
20	0xbe6f02b3	-0.23340873
21	0x3e4b954c	0.19881171
22	0x3ca2abdb	0.019857338
23	0xbe114a76	-0.14188561
24	0x3ea844c6	0.3286497
25	0xbd09d3f3	-0.033649396
26	0x3da4ec40	0.080528736
27	0x3de99f14	0.11407295
28	0x3d3d7ec7	0.046263482
29	0x3e662cdb	0.22478049
30	0xbd93436a	-0.071905926
31	0xbeade58e	-0.339642
32	0xbe3fb5b1	-0.18721654
33	0xbd124e12	-0.035718985
34	0xbe7d867d	-0.24758334
35	0x3e900638	0.28129745
36	0x3e78eb5f	0.24308537
37	0x3c31ac61	0.010844321
38	0xbb861179	-0.0040914384
39	0xbef2e7aa	-0.4744237
40	0x3e63f4d8	0.22261369
41	0x3b15de80	0.0022868216
42	0x3e188132	0.14893034
43	0xbdac95f4	-0.08427039
44	0xbd0a1acf	-0.033716973
45	0xbebe192d	-0.37128583
46	0xbe7a6f4f	-0.24456523
47	0x3d538976	0.051644765
48	0xbc544eee	-0.012958271
49	0xbd25e888	-0.040504962
50	0x3dc73a88	0.09727961
51	0xbd0fd376	-0.035113774
52	0xbd1cfedb	-0.038328987
53	0x3e5a6359	0.2132696
54	0x3df074af	0.11741006
55	0x3d91b69a	0.071149066
56	0x3dfeda06	0.124439284
57	0xbe3330c2	-0.17499068
58	0x3eb10c13	0.34579524
59	0xbe42692f	-0.18985437
60	0x3e486855	0.1957105
61	0x3e05d436	0.13069233
62	0x3cd68450	0.026186138
63	0xbdd0e09e	-0.10199092
64	0x3ed1a390	0.409451
65	0x3ea4ef59	0.32213858
66	0xbe465f0b	-0.19372194
67	0x3bf9b904	0.0076209325
68	0x3e3b67ca	0.18301311
69	0xbebcceb4	-0.36876452
70	0x3ededf41	0.43529704
71	0x3d27726a	0.040880598
72	0x3d636b98	0.05552253
73	0x3e3f80b0	0.18701434
74	0xbd95cb0e	-0.0731412
75	0xbdb20390	-0.08692086
76	0xbe38566d	-0.18001719
77	0x3ebb998b	0.3664058
78	0xbe35c187	-0.17749606
79	0x3e83fb32	0.25777584
80	0x3f0c9b3f	0.54924387
81	0x3e362a02	0.17789462
82	0x3dfaacfe	0.12240027
83	0xbd152407	-0.03641131
84	0x3e025f17	0.12731586
85	0x3d762fd7	0.060104217
86	0xbd1b7e59	-0.03796229
87	0xbe952c05	-0.29135147
88	0xbe9c2acc	-0.305014
89	0x3dc7d9ad	0.09758315
90	0xbdbe2ccd	-0.09285889
91	0xbe8b7d66	-0.2724411
92	0x3db81135	0.08987657
93	0xbe478e46	-0.19487867
94	0x3d3668d4	0.044533566
95	0x3e1df4ae	0.15425369
96	0xbeb65016	-0.35607976
97	0x3ed43454	0.41446173
98	0xbda466ab	-0.08027395
99	0x3e9aecd9	0.30258825
100	0x3dce24a0	0.100655794
101	0xbcf13950	-0.029446274
102	0xbc30e3f2	-0.010796534
103	0x3e0a9fe6	0.13537559
104	0x3e8ab825	0.27093616
105	0xbedeea84	-0.43538296
106	0xbe0164f4	-0.12636167
107	0xbee21b67	-0.4416153
108	0xbe1f93b3	-0.15583687
109	0x3e3b325e	0.18280932
110	0x3e6105f6	0.2197493
111	0xbe26aa96	-0.16276011
112	0x3e99b71d	0.30022517
113	0xbd6b7b55	-0.057490665
114	0xbe68b8b9	-0.22726716
115	0x3c900255	0.017579237
116	0x3ea2d0d3	0.31799945
117	0xbe50af60	-0.203794
118	0x3e394aa4	0.1809488
119	0x3d9205f0	0.07130039
120	0xbd0ea1d0	-0.034822285
121	0xbe358a63	-0.17728572
122	0xbe2e37a7	-0.17013417
123	0x3dbfae08	0.09359366
124	0xbeb7e6e3	-0.3591834
125	0x3d5a75e4	0.053335086
126	0xbe267720	-0.1625638
127	0x3e3d717f	0.18500327

bn1.running_var f4 [128]
0	0x3c72b733	0.014814186
1	0x3e92f1a3	0.2869998
2	0x3d02167a	0.031759717
3	0x3d1e4bcc	0.038646504
4	0x3e1a25cb	0.1505348
5	0x3dc15c67	0.094414525
6	0x3d476db8	0.04868862
7	0x3d574232	0.052553363
8	0x3c6a7cfc	0.014312025
9	0x3dc882ea	0.09790595
10	0x3dbb8cdf	0.091577284
11	0x3d790bd6	0.060802303
12	0x3d9a8f68	0.07546884
13	0x3d9f5527	0.077799134
14	0x3d9f2d20	0.07772279
15	0x3e1f6881	0.15567209
16	0x3ca50514	0.020144023
17	0x3bcb6310	0.0062068775
18	0x3e22a492	0.15883091
19	0x3e9ce557	0.30643722
20	0x3e214bed	0.1575162
21	0x3e363ebd	0.1779737
22	0x3cbe6a19	0.02324395
23	0x3cf170a3	0.029472655
24	0x3cb1784d	0.02166381
25	0x3d8ed075	0.06973354
26	0x3c43f9e4	0.011961434
27	0x3d80075f	0.06251406
28	0x3d8b83bf	0.06812238
29	0x3dfcbcac	0.12340674
30	0x3ddcfe99	0.10790748
31	0x3d5dec65	0.05418052
32	0x3d894b33	0.06703796
33	0x3e150f5c	0.1455664
34	0x3c4b40fa	0.012405628
35	0x3d00c47d	0.031437386
36	0x3ce94f00	0.028480053
37	0x3e0f5534	0.13997346
38	0x3cf98c3b	0.030462375
39	0x3e77097c	0.24124712
40	0x3da8a97f	0.08235454
41	0x3ca2b2ad	0.01986059
42	0x3c07a9d0	0.008280233
43	0x3c83b04e	0.01607528
44	0x3c3b5c86	0.0114356335
45	0x3e49240a	0.19642654
46	0x3bc8e6cd	0.006131029
47	0x3cc575a5	0.024103949
48	0x3c703c86	0.014662867
49	0x3d105ab4	0.03524275
50	0x3c43d0d6	0.011951646
51	0x3e244d97	0.16045223
52	0x3d91636f	0.070990436
53	0x3d9108d6	0.070817634
54	0x3d63adf1	0.055585805
55	0x3d5975d3	0.05309088
56	0x3d46756e	0.048451833
57	0x3dbc992a	0.09208901
58	0x3d3ee03b	0.04660056
59	0x3ca74dde	0.020422872
60	0x3d979cf7	0.074029855
61	0x3d8b9b5f	0.06816744
62	0x3e62f4ce	0.22163698
63	0x3e646141	0.22302724
64	0x3cb24e60	0.021765888
65	0x3e5339d6	0.20627531
66	0x3cf9dc1a	0.03050046
67	0x3d3fe270	0.046846807
68	0x3def53b9	0.11685891
69	0x3ddf41ad	0.109011985
70	0x3cfab2fd	0.030602926
71	0x3ce8e3b0	0.028428882
72	0x3c8b2651	0.016986044
73	0x3d121860	0.035667777
74	0x3e650941	0.22366811
75	0x3cd90c2a	0.026495058
76	0x3cc1dcbc	0.023664825
77	0x3e051123	0.12994818
78	0x3d0fbe9f	0.0350939
79	0x3cccdf4c	0.02500882
80	0x3dc21501	0.094766624
81	0x3d6031c2	0.054734953
82	0x3d923f4b	0.071409784
83	0x3d0e1769	0.034690294
84	0x3c87304b	0.01650252
85	0x3cb20975	0.021733025
86	0x3d6a2c8f	0.0571714
87	0x3c96d106	0.018410217
88	0x3dc8bac5	0.098012485
89	0x3d46a30c	0.048495337
90	0x3e5dd914	0.2166484
91	0x3db5d957	0.08879345
92	0x3d43bb90	0.047786295
93	0x3cbb8c01	0.022893908
94	0x3d92fc62	0.071770445
95	0x3db8bced	0.0902041
96	0x3d19442a	0.037418522
97	0x3d047295	0.032335836
98	0x3dc736d6	0.09727256
99	0x3da961d8	0.08270615
100	0x3d13de08	0.036100417
101	0x3d4a3189	0.049363647
102	0x3d3fb77f	0.046805855
103	0x3e2c01a2	0.16797498
104	0x3de1e154	0.11029306
105	0x3d13aadd	0.03605162
106	0x3e0809a4	0.13284928
107	0x3d2748c4	0.04084088
108	0x3dc01b82	0.09380247
109	0x3c615d5e	0.013755171
110	0x3c924458	0.017854854
111	0x3dab4ca0	0.083642244
112	0x3ccc4ce4	0.024939008
113	0x3caaba29	0.020840721
114	0x3ca2bd0d	0.019865537
115	0x3c89661e	0.016772326
116	0x3de84c4c	0.113426775
117	0x3cd90067	0.02648945
118	0x3d62d264	0.055376425
119	0x3e1b5813	0.15170316
120	0x3d571c5a	0.052517273
121	0x3da0a6e6	0.07844333
122	0x3db5a555	0.08869425
123	0x3cc4d66d	0.024028027
124	0x3d8d9082	0.06912328
125	0x3e4a5ba8	0.19761527
126	0x3d1d89ef	0.03846162
127	0x3d1f73d5	0.038928825

fc2.weight f4 [1, 128]
0	0x3c81111c	0.015755229
1	0x3d8e8bdb	0.06960269
2	0x3d9430ac	0.07235846
3	0xbdaf0d48	-0.08547455
4	0xbd8a263a	-0.067455724
5	0x3c6c212a	0.014412204
6	0xbd33e39d	-0.04391824
7	0x3d24f27a	0.040270306
8	0x3d1b237b	0.037875634
9	0xbc5b1d01	-0.013373614
10	0xbdaf8b5e	-0.08571504
11	0x3c9afb9d	0.018918807
12	0x3d09c66b	0.03363649
13	0xbccd642c	-0.02507218
14	0xbc21b437	-0.009869627
15	0x3ce1cadb	0.02756255
16	0x3c984826	0.01858909
17	0xbab32db4	-0.0013670237
18	0x3cd511bf	0.026009439
19	0xbd9ad047	-0.07559257
20	0xbc5db26c	-0.013531309
21	0xbc7c8ed6	-0.015414914
22	0xbcc18086	-0.023620855
23	0x3d297882	0.04137469
24	0xbd7a3a83	-0.061090957
25	0xbdbda280	-0.0925951
26	0xbc841158	-0.016121551
27	0xbc6cb144	-0.01444656
28	0xbd917b90	-0.07103646
29	0xbdc0da05	-0.09416584
30	0x3d624650	0.055242836
31	0xbc595894	-0.013265748
32	0x3d425606	0.04744532
33	0x3d664f22	0.05622781
34	0x3d386c42	0.045025118
35	0xbda0c10f	-0.07849323
36	0xbd943a10	-0.07237637
37	0xbd32f86a	-0.043693937
38	0x3d6d9f29	0.058013115
39	0x3d807894	0.062729985
40	0x3d967d6b	0.0734814
41	0x3d2be12a	0.04196278
42	0x3c86e05c	0.016464405
43	0x3d923bb4	0.07140294
44	0x3c9fedb1	0.01952252
45	0xbd17088f	-0.036873396
46	0xbc1232c2	-0.008923234
47	0x3c5ef9a1	0.013609321
48	0x3d4ddd99	0.05026016
49	0xbd225f58	-0.039641708
50	0x3d733625	0.059377808
51	0x3d149545	0.036275167
52	0xbd95d50d	-0.07316027
53	0xbd2b254e	-0.041783623
54	0x3d320ea4	0.043470994
55	0x3d84550c	0.06461534
56	0x3d377eac	0.044798538
57	0xbb445fb3	-0.0029964268
58	0x3c9e3fc7	0.01931752
59	0xbcfe4577	-0.031038983
60	0x3c3a8a7e	0.011385558
61	0xbd4ae109	-0.049531016
62	0x3cc4d891	0.024029048
63	0xbb38bf5b	-0.0028190229
64	0x3d828701	0.06373406
65	0xbbbd4ea2	-0.005777196
66	0x3d7950ba	0.060868002
67	0x3d6e0e91	0.05811936
68	0x3d3273ad	0.04356735
69	0xbd025bdd	-0.03182589
70	0x3d40d254	0.047075585
71	0xbdbbcdec	-0.09170136
72	0x3d9065a7	0.07050639
73	0xbd5a4989	-0.053292785
74	0x3d527008	0.051376373
75	0xbd9f4207	-0.077762656
76	0x3cfa5491	0.030557903
77	0xbcb9dc06	-0.022687923
78	0xbc827134	-0.01592312
79	0x3d6a78d2	0.05724413
80	0xbd58ff0e	-0.052977614
81	0xbb3a8954	-0.0028463202
82	0x3d2d1eee	0.042265825
83	0x3d3aa70e	0.045569472
84	0x3bdf9bdf	0.006824001
85	0x3bee3fda	0.0072707953
86	0xbc00bd94	-0.007857699
87	0xbd21241a	-0.03934107
88	0xbda5cb68	-0.08095437
89	0x3d7a59ed	0.061120916
90	0xbcd1fec7	-0.025634183
91	0x3c4d8fa6	0.0125464555
92	0xb9dc4a9b	-0.00042017255
93	0xbd0388b6	-0.0321128
94	0xbd8b4050	-0.06799376
95	0xbdb6d789	-0.08927829
96	0xbd77f013	-0.060531687
97	0xbd246704	-0.040137306
98	0x3d944dd9	0.07241411
99	0x3c164bae	0.009173317
100	0x3c807fc5	0.015685925
101	0xbceee8e2	-0.029163782
102	0xbd899c73	-0.067192934
103	0xbb097b6d	-0.0020978109
104	0x3d96e610	0.073681
105	0xbc4b8a95	-0.012423177
106	0x3c636d2c	0.013881009
107	0x3d70db38	0.058802813
108	0x3b992fb5	0.0046748766
109	0xbcaea685	-0.021319637
110	0x3d030df2	0.03199572
111	0x3d416455	0.047214825
112	0x3d5fae60	0.054609656
113	0x3d770ae6	0.060313128
114	0x3d838a5a	0.06422873
115	0xbd874955	-0.06605784
116	0xbd45f1c8	-0.048326284
117	0xbdafa732	-0.08576812
118	0xbd85563c	-0.065105885
119	0x3d17fd1d	0.037106622
120	0xbd482f69	-0.04887334
121	0x3d5bb2e8	0.053637415
122	0xbd554f66	-0.052077673
123	0x3d3350db	0.04377828
124	0xbcc177db	-0.023616722
125	0x3d009e4d	0.031400967
126	0xbd3d09a9	-0.04615179
127	0x3ceb9116	0.028755706
